models/churn_model.pth (torch, 3909 bytes, 5 tensors)

net.0.weight f4 [16, 3]
-0.37737587 -0.19987723 -0.5585177 -0.13481064 0.27320623 0.09411738 0.3253923 0.26363742
-0.15032087 0.38733083 0.0024272143 -0.24982852 -0.45608294 -0.0075815413 0.009375998 0.35510278
-0.32286653 -0.0849654 -0.14766246 -0.064618476 0.5094978 -0.4719523 0.19657764 -0.16934837
0.56079936 0.11741032 -0.001118914 0.17349006 0.20043883 -0.13629448 -0.36029193 -0.06567734
0.29092205 -0.07702396 0.14397058 0.4074944 0.0067761587 -0.2405337 -0.36427838 -0.553326
0.15066868 0.2644148 0.36604184 -0.2273828 0.36200196 -0.45648164 -0.5844004 -0.09654213
00000000: 6937 c1be 9eac 4cbe 04fb 0ebf cd0b 0abe
00000010: b0e1 8b3e 9dc0 c03d d299 a63e 7cfb 863e
00000020: b7ed 19be 3a50 c63e e611 1f3b 0cd3 7fbe
00000030: b483 e9be 946e f8bb c99d 193c 08d0 b53e
00000040: c34e a5be 5702 aebd d434 17be b156 84bd
00000050: 736e 023f bba3 f1be a64b 493e a969 2dbe
00000060: 8c90 0f3f d274 f03d 86a8 92ba 61a7 313e
00000070: d63f 4d3e c890 0bbe 2f78 b8be d781 86bd
00000080: bcf3 943e bdbe 9dbd 066d 133e 1ba3 d03e
00000090: 8a0a de3b 774e 76be b282 babe c6a6 0dbf
000000a0: e448 1a3e 6061 873e d669 bb3e 09d7 68be
000000b0: 5258 b93e f6b7 e9be 449b 15bf e1b7 c5bd

net.0.bias f4 [16]
0.13904688 -0.36517823 0.0017774245 0.59413207 -0.080244064 -0.02120385 0.40533397 0.52040714
0.3922644 -0.5260979 -0.2907779 0.17023593 0.3856113 0.20368552 0.45262438 -0.13344555
00000000: 4e62 0e3e a4f8 babe 78f8 e83a 0a19 183f
00000010: 0057 a4bd b2b3 adbc ef87 cf3e 6739 053f
00000020: e1d6 c83e 5aae 06bf d7e0 94be 5452 2e3e
00000030: d86e c53e f092 503e 62be e73e f3a5 08be

net.2.weight f4 [8, 16]
0.26799527 -0.040124703 0.26197967 0.17099771 -0.11653713 0.16102059 0.059736323 -0.10552161
-0.16675457 0.1448529 -0.04419248 0.24108276 -0.007250971 -0.13255616 0.07699624 0.21674138
0.1180689 0.044293344 -0.14778134 0.07702106 0.11973408 0.01169315 -0.13940433 -0.18235296
-0.041454375 -0.057096273 -0.16108513 0.21302512 -0.04398927 -0.08252978 -0.24328446 0.015201449
-0.015924362 0.14776818 -0.15477559 0.037040867 0.12978795 0.017775387 0.13187452 -0.21970873
-0.22219118 0.055347323 -0.15234873 0.17694658 0.15252419 -0.07077965 0.18117905 0.054462582
-0.08994484 0.15208763 -0.075057775 -0.1797995 -0.20200178 -0.19131383 -0.026839167 -0.048351705
-0.19888514 -0.24981251 -0.17752227 0.17177165 -0.24114054 -0.23245093 -0.12961152 0.14004111
-0.19424471 0.14400977 -0.026834857 0.24105631 0.12447155 -0.11395037 -0.103883706 0.006943959
0.22995721 0.22890389 -0.09973639 0.27110887 -0.022975324 -0.07974158 0.10369204 -0.056012355
0.0375451 0.031227337 0.107569724 -0.20512538 -0.13754669 -0.036752254 -0.17202424 0.037284795
-0.012024766 0.0062695146 0.13112077 0.13569833 -0.17672998 -0.00098474 0.030549541 0.118281454
0.06822518 -0.1509954 -0.003685828 0.24004348 -0.032009322 0.08151303 0.15156893 -0.123510405
0.05143933 0.036473006 -0.15436195 -0.028748492 0.20287968 -0.10981635 0.2880892 0.00489516
-0.24599338 0.04949964 -0.15624881 0.20192264 0.0020446181 -0.048117965 -0.13867703 -0.065727524
0.017724484 0.078250945 -0.049669057 -0.006425519 -0.15886274 0.13107854 0.13577498 -0.019791232
00000000: ad36 893e cd59 24bd 3322 863e 061a 2f3e
00000010: 05ab eebd 95e2 243e 13ae 743d b71b d8bd
00000020: b6c1 2abe 5254 143e 2d03 35bd 66de 763e
00000030: 8e99 edbb cdbc 07be 34b0 9d3d 74f1 5d3e
00000040: 1cce f13d f06c 353d fe53 17be 38bd 9d3d
00000050: 2437 f53d a094 3f3c 02c0 0ebe bcba 3abe
00000060: 10cc 29bd c8dd 69bd 80f3 24be 4223 5a3e
00000070: 182e 34bd 6005 a9bd 901f 79be 800f 793c
00000080: cf73 82bc 8b50 173e 7e7d 1ebe 2ab8 173d
00000090: 22e7 043e b09d 913c 1d0a 073e 53fb 60be
000000a0: 1686 63be e0b3 623d 4e01 1cbe 7c31 353e
000000b0: 4d2f 1c3e ecf4 90bd 0087 393e 2814 5f3d
000000c0: 0035 b8bd dcbc 1b3e e4b7 99bd 5c1d 38be
000000d0: 8ed9 4ebe c6e7 43be d0dd dbbc 700c 46bd
000000e0: 8ca8 4bbe dace 7fbe 66c8 35be e8e4 2f3e
000000f0: 8ced 76be 9e07 6ebe e2b8 04be f066 0f3e
00000100: 16e8 46be 4c77 133e c6d4 dbbc 77d7 763e
00000110: f1ea fe3d d05e e9bd fbc0 d4bd 268a e33b
00000120: e779 6b3e c865 6a3e 9842 ccbd c8ce 8a3e
00000130: bf36 bcbc 8e4f a3bd 7e5c d43d 366d 65bd
00000140: e4c8 193d 79d0 ff3c 844d dc3d 630c 52be
00000150: 0ad9 0cbe 8889 16bd 1f27 30be f1b7 183d
00000160: 8603 45bc 8070 cd3b 8644 063e 81f4 0a3e
00000170: b4f8 34be 6412 81ba 0843 fa3c 8c3d f23d
00000180: a5b9 8b3d 8a9e 1abe ef8d 71bb f5cd 753e
00000190: 351c 03bd 4ef0 a63d e334 1b3e 06f3 fcbd
000001a0: 0cb2 523d b864 153d 0f11 1ebe f581 ebbc
000001b0: b1bf 4f3e 65e7 e0bd 6d80 933e 9467 a03b
000001c0: b0e5 7bbe 22c0 4a3d b0ff 1fbe cfc4 4e3e
000001d0: 00ff 053b 5817 45bd 5a01 0ebe 279c 86bd
000001e0: f032 913c 0842 a03d c871 4bbd 298d d2bb
000001f0: eaac 22be 7439 063e 9908 0b3e 3921 a2bc

net.2.bias f4 [8]
0.15544978 -0.12713909 -0.16634037 -0.09780806 0.116447695 0.051339153 0.24404319 -0.21946959
00000000: 3a2e 1f3e c030 02be 2155 2abe 984f c8bd
00000010: 217c ee3d 0149 523d 75e6 793e a3bc 60be

net.4.weight f4 [1, 8]
-0.351008 -0.030105535 0.25954932 0.14439026 -0.38582632 -0.26642665 -0.21210313 0.21411975
00000000: 52b7 b3be e29f f6bc a6e3 843e 0adb 133e
00000010: 078b c5be 1369 88be 9031 59be 3542 5b3e
